nanogpt.pth (torch, 227511 bytes, 37 tensors)

transformer.wte.weight f4 [50, 32]
000000 21 6f 6f 3c 04 92 91 bc 57 65 ad 3c 9c ef a0 bc
       0.014613898 -0.017769821 0.021166487 -0.019645505
000010 c9 69 55 3b f6 62 2d bc 9b 51 8a 3c b9 79 9a 3c
       0.0032564274 -0.010582676 0.016884616 0.01885687
000020 0a 2b 72 bc 70 b7 34 3b 19 03 cb 3c 1e ea d6 bc
       -0.014780769 0.0027575158 0.02478175 -0.026234683
000030 d6 37 23 3c d7 31 72 bc f8 17 a4 3b bf f6 84 bb
       0.009962043 -0.014782391 0.00500774 -0.0040577347
000040 c3 cd ef bc 1b 37 66 bc 26 0d 97 3c 06 0b 91 3c
       -0.02927292 -0.014051224 0.018438887 0.017705452
000050 f8 d7 b8 3c 26 24 3c 3c 17 9d 9c 3c f5 46 bf 3c
       0.02256392 0.011483228 0.019117875 0.023349265
000060 14 df cc 3b 03 f2 0e bc 0d ab 1e bd a5 02 57 bd
       0.006252179 -0.008724692 -0.038737345 -0.052492756
000070 97 8c 82 bc 04 c8 84 3c 14 65 b1 bb 49 ed 25 3c
       -0.01593618 0.016208656 -0.005413661 0.010127374
000080 24 c2 d0 bc ab 05 51 bb 74 9d e6 3b b7 05 71 3b
       -0.025483198 -0.0031894248 0.007037813 0.0036777088
000090 84 ff 11 3c d8 a9 27 3b b7 d1 ea 3b 79 e2 85 3a
       0.008911017 0.0025583412 0.0071661132 0.0010214589
0000a0 d7 10 11 ba f5 55 ed 3b 9e 67 9d bc 58 3d 2f bb
       -0.00055338204 0.007242913 -0.019214448 -0.0026739445
0000b0 86 40 02 bd a2 48 9c bc 6b 80 81 bc ef b4 07 bb
       -0.031799816 -0.019077603 -0.015808305 -0.002070721
0000c0 a6 77 b1 3b 20 99 1b 3d 26 d6 5a bc 96 c7 11 3c
       0.0054158745 0.03798783 -0.013356721 0.008897683
0000d0 80 0c 08 bd a1 67 dc bb 7e fe 56 3c 8d 07 3e bb
       -0.033215046 -0.0067262207 0.013122199 -0.00289962
0000e0 ad 64 30 3d d7 c7 ed bc ee a4 57 bb 3c 73 4b bc
       0.043064762 -0.029025955 -0.0032904702 -0.012417611
0000f0 5b b8 ae bc 7c 9c 92 3c 5b 53 2e bd 79 85 5f 3b
       -0.021328142 0.017896883 -0.042559963 0.0034106656
000100 d9 42 27 bd fe a7 de 3c 09 35 53 bc 46 52 24 3c
       -0.040835235 0.027179714 -0.012891063 0.010029381
000110 25 5f da bb 97 c0 8d 3c db 11 61 3c fb 0e 73 3b
       -0.006664174 0.017303748 0.013737167 0.0037087786
000120 0a 6d 4a bc 5b 95 57 3c 0a 92 e5 3a 03 8e 68 bc
       -0.0123550985 0.013158168 0.0017514837 -0.0141940145
000130 1b 04 e3 bb c6 7f 84 bc 38 55 dd 38 7c 95 cb 3b
       -0.0069279796 -0.016174208 0.000105539744 0.0062128883
000140 bc e2 73 bb 84 0c 1e 3d b2 bf 4d 3b e0 cf 36 bb
       -0.0037214002 0.038586155 0.0031394777 -0.00278949
000150 0a 8a ab 3c ed 09 c5 bc 79 dc d4 3c 2e c0 5e bb
       0.020939846 -0.024052585 0.025984036 -0.003398906
000160 1c 92 c4 bc 22 ac af 3b 22 b1 e2 bb 5d bc 3d ba
       -0.023995452 0.005361096 -0.0069180885 -0.0007237846
000170 a9 44 c2 3b 40 fd 56 bb 84 c4 20 3c 65 48 95 3b
       0.005928595 -0.0032804757 0.009812478 0.0045557492
000180 06 71 23 3c 1c d4 80 bc 92 08 67 bb 84 39 d1 3c
       0.009975677 -0.015726142 -0.003525291 0.02554012
000190 93 53 35 3d 21 7b c0 3a 53 5a ad 3c 9d 54 49 bd
       0.044269156 0.0014685133 0.021161234 -0.04915296
0001a0 73 a2 27 bb eb 5c 23 3c 1f bc 03 bd 10 a8 40 3d
       -0.0025579005 0.009970884 -0.032161828 0.047035277
0001b0 42 12 f9 bb 50 70 59 3b 53 e1 82 3c 02 1c 81 bc
       -0.0076010535 0.0033178516 0.015976584 -0.015760425
0001c0 61 26 5c 3c 38 2c a3 bc 86 79 10 3b 17 6c 5b bc
       0.013436885 -0.019918546 0.002204509 -0.01339247
0001d0 dc 7b b8 3b 9b ab a0 ba eb 42 4e bb 06 f1 1f 3c
       0.0056299996 -0.0012258174 -0.0031472992 0.009762054
0001e0 93 89 2d bd 17 7a 6b bb bf d4 87 3c f3 27 69 3b
       -0.04236753 -0.0035930926 0.016580937 0.003557679
0001f0 89 83 19 3d 0a 5a 46 3c 5d 50 e6 bc 56 56 a7 bc
       0.037478957 0.012106428 -0.028114492 -0.02042691
000200 b3 f8 54 3a 07 31 18 3c a0 2b 9b bc a0 e4 b7 3b
       0.0008124217 0.009289033 -0.0189417 0.005611971
000210 5b 5e b1 3c 2b 75 42 3d 80 c8 ed 3c fd bd 8c b9
       0.021651438 0.04747502 0.02902627 -0.00026844433
000220 4d 7e 2c 3c bd 1c a4 3c f2 5e 16 bd f9 06 81 3c
       0.010528159 0.020033235 -0.03671164 0.015750395
000230 cb cf 46 bb 58 4b 5f 3b 37 ed 4b 3c 45 79 45 bd
       -0.0030336257 0.0034072008 0.012446693 -0.048211355
000240 cf 3e 2c 3c ef fc 5b bc b9 41 64 bc d3 31 c1 bc
       0.010513022 -0.013427003 -0.013931685 -0.023583328
000250 fc 63 67 3c 58 31 44 3c a9 7d 27 3d 1b 1a 43 3c
       0.014122959 0.011974655 0.040891323 0.0119080795
000260 c4 0a 91 bc 37 31 df bc 05 78 30 bc f5 4a 22 3c
       -0.017705329 -0.027245147 -0.010770802 0.009905566
000270 42 f1 9d 3c 19 6b 4c 3d e7 0c 01 3d cd ed 1a bc
       0.01928008 0.049906824 0.031506445 -0.00945611
000280 09 c3 90 ba 6e f4 8d 39 f4 e7 03 bb 4d 50 02 bc
       -0.0011044453 0.0002707573 -0.0020127269 -0.0079537155
000290 89 bb 59 bc 0f aa 66 3c 41 14 cc 3c 87 0b 0e 3c
       -0.013289341 0.014078631 0.024912002 0.0086697405
0002a0 9c 54 6c bc 24 a8 11 3b d3 ed 24 bc 46 f9 ad bc
       -0.014424469 0.0022225464 -0.010066467 -0.021237027
0002b0 2b b6 ac bb 0d bf ad 3c 67 b4 f2 3c 02 3d a1 bc
       -0.0052707396 0.021209264 0.029627038 -0.019682411
0002c0 c9 f2 67 3c 7b 3d fd bc 34 58 9d bb f0 10 eb bc
       0.014157006 -0.030913105 -0.0048017744 -0.0286946
0002d0 4e 2d 34 bc ea 1a 61 3c 0f d7 1a bc ea c5 aa 3c
       -0.01099713 0.013739327 -0.009450688 0.020846326
0002e0 bc 7e 43 3c 14 75 9b bb 2e fe 7a 3b d8 43 48 3a
       0.011932071 -0.0047441814 0.0038298476 0.0007639504
0002f0 3b 48 65 3a b5 fd dc bc 7e 30 9d bb 26 bc 41 3a
       0.000874642 -0.026976446 -0.0047970405 0.0007390402
000300 fe 16 92 bb 02 59 cb bc 2b 5d 15 bd f4 7a 01 3c
       -0.0044583073 -0.024822716 -0.036465805 0.007902849
000310 93 24 26 3d fe 24 9d 3c 3b 02 30 3c e4 13 e2 bc
       0.040562224 0.019182678 0.010742719 -0.027597375
000320 90 88 19 3d be 77 ec bc 1d 4a 1d bb 7e 09 63 3d
       0.03748375 -0.028865691 -0.0024000474 0.055428974
000330 70 66 81 3c fe b0 41 bb e1 82 8c 3b 99 89 ff 3c
       0.015795916 -0.0029554958 0.004288063 0.031193541
000340 ed 68 99 bc 14 41 c3 3c bc 3e 61 bc 0e e2 e9 bb
       -0.01872679 0.023834743 -0.013747867 -0.0071375435
000350 33 de 2c 3c 20 5d 99 3b d9 2e 4e bc 09 21 03 3d
       0.010551023 0.004680291 -0.012584412 0.032013927
000360 a9 0b 8c 3c 6f aa 53 bc bd 8a 7b 3b 8b c3 19 3a
       0.017095404 -0.0129190525 0.0038382255 0.0005865625
000370 78 69 bf bb f2 e0 37 3b d0 80 83 bc be 1c b8 bb
       -0.0058414303 0.0028057662 -0.016052634 -0.0056186607
000380 07 0e 85 bc 89 74 c4 bc a1 eb be bb 7b ba 2f bb
       -0.01624204 -0.02398135 -0.005826429 -0.0026814032
000390 34 68 fa 3b 49 72 13 bc f2 2a 10 3d f5 68 48 3a
       0.0076418165 -0.008999416 0.035197206 0.00076450343
0003a0 53 f9 fd 3c dc 5d b4 3c cc 5e 84 bb 38 15 af bc
       0.031002676 0.022017412 -0.004039621 -0.021372423
0003b0 81 0c ef 3c 93 5d 4b bc 57 60 f5 3c b2 3d 70 ba
       0.029180767 -0.012412447 0.029953165 -0.0009164467
0003c0 ce f1 96 bc bc 07 b3 3c d5 95 d0 3c fe 4d 75 bd
       -0.018425848 0.021854274 0.02546207 -0.059888832
0003d0 99 bc f9 ba 0e 95 6b bb 79 47 00 bb 5e 44 ff b9
       -0.0019053399 -0.0035946998 -0.001957385 -0.00048688328
0003e0 5e cf 76 3b bc e6 66 3d 3b c6 bf 3c 2e 97 b2 3c
       0.0037660222 0.05637239 0.023409953 0.021800604
0003f0 59 65 a0 bb b9 6b 9b bb f3 5d 3e bd c2 27 73 3a
       -0.004894894 -0.004743066 -0.046476316 0.0009275639

transformer.wpe.weight f4 [64, 32]
000000 19 a9 7c 3b 34 f2 12 3c ee 13 cf bc 60 45 90 3b
       0.0038552938 0.008968879 -0.025278058 0.0044028014
000010 eb a6 1e bd f8 1c 2f bc dd 52 1d bc 71 c5 16 3c
       -0.038733404 -0.010688059 -0.009602276 0.009202347
000020 2f f9 da bc 0b 59 f3 3c 6f c2 e8 3b 0e 58 1c 3c
       -0.026730148 0.029705545 0.0071032564 0.009542478
000030 cc 86 db bb fc cc 39 bd a1 26 b8 3b f5 97 48 bd
       -0.0066994186 -0.045361504 0.0056198393 -0.048973043
000040 0f fe 2f 3c 62 b9 71 bc b0 29 70 3c e6 c5 3b 3c
       0.010741725 -0.014753671 0.014658377 0.011460757
000050 9b 1e df 3c 79 f2 60 3c 3e f4 a1 bb 20 3f 43 bc
       0.027236274 0.013729685 -0.004942446 -0.011916906
000060 c7 04 bb 3b 66 33 ab bc c5 d8 37 bd 19 cd af 3c
       0.0057073566 -0.020898532 -0.044884462 0.021460103
000070 82 fd 1f 3b ab 33 83 bc 62 03 2c bd 1a b3 17 bc
       0.0024412577 -0.016015848 -0.041995414 -0.00925901
000080 15 8a 5b 3b d5 e8 61 bd 01 26 6e 3b 06 e6 99 bb
       0.0033499051 -0.055153687 0.003633857 -0.0046966104
000090 14 67 85 3c 7b b2 7f 3c 80 2b 07 bb aa e4 23 3d
       0.016284503 0.015606518 -0.0020625293 0.040012993
0000a0 29 b8 96 bc 20 d7 03 bc 99 be 51 3d af 71 77 3c
       -0.018398361 -0.008046895 0.05120716 0.015102788
0000b0 cf 3f 0b 3d 9c 67 9d 3c ee 6f e1 3b 12 1e 92 bb
       0.0339964 0.019214444 0.006879798 -0.004459151
0000c0 fe 33 36 bd a0 6a 0a 3c cd 82 06 3d 0a 92 73 bc
       -0.044483177 0.008448273 0.032839585 -0.014866361
0000d0 eb 34 ce 3c e5 c8 8d ba a2 ec 56 bb fd f3 ee 3a
       0.025171718 -0.0010817318 -0.0032794853 0.0018230673
0000e0 7e f1 1d 3c 39 c5 c8 bb e4 c6 41 bc 9e bb ad 3a
       0.009640096 -0.0061270264 -0.011827204 0.0013254767
0000f0 b6 90 2b 3c 59 cf 1f 3c b0 e5 a1 bc 93 26 8a 3c
       0.0104715135 0.009754025 -0.019762844 0.016864097
000100 74 a0 8c 3c cb 59 b3 bc 16 24 95 3c ef 86 3f bc
       0.017166354 -0.021893403 0.018205684 -0.0116898855
000110 b3 21 04 3d f8 c9 a2 bb f7 be a3 bc 35 1f 34 3c
       0.0322587 -0.004967924 -0.01998852 0.010993768
000120 a6 86 86 ba bc df 59 3c 92 d5 27 bd d7 96 cc 3c
       -0.0010263517 0.013297971 -0.04097516 0.02497427
000130 29 e5 f8 3b 66 7f f6 3b 26 bf 02 bc 97 c6 55 bc
       0.0075956774 0.0075225113 -0.007980144 -0.013047836
000140 3c b5 ce bc 7b a7 b8 b8 82 73 3d 3c 9c 03 2f 3b
       -0.025232904 -8.8049994e-05 0.011563184 0.0026705032
000150 61 82 47 3c 12 8c 2d 3c 19 ee 84 bc f4 b6 a2 bc
       0.012177081 0.010592477 -0.016226815 -0.01986263
000160 14 ef ca bc 6a 13 5b 3b 73 a0 91 3c 0b 02 a5 bb
       -0.024772204 0.003342832 0.017776703 -0.005035644
000170 c1 68 e3 3c 97 32 03 bc 7b 7d 50 bc 12 84 06 bc
       0.027759911 -0.008007667 -0.012725229 -0.008210199
000180 93 ea ea bb 7b cb 3e 3c 64 df 9e 3b ef 37 24 3b
       -0.0071690767 0.011645193 0.0048484076 0.0025057753
000190 04 4e 88 bb cf e1 a5 bc b7 ef d0 3b d7 64 4a 3c
       -0.004159691 -0.020249275 0.0063762325 0.012353144
0001a0 2b 09 89 bb 82 ec bd bb ed cc 24 3b a8 4c 22 bc
       -0.004182001 -0.005796016 0.002514656 -0.009905972
0001b0 c7 d6 d9 bb 35 19 e7 bc 39 d2 d8 bc d5 fa 9e bc
       -0.006647918 -0.028210262 -0.02646743 -0.019406715
0001c0 d0 dc 48 bc 4d 0f 8c bc f7 77 f5 bb d0 3b 2b 3d
       -0.012259677 -0.01709714 -0.0074911076 0.04180509
0001d0 13 c6 ae bb 30 af 70 3c 0a 34 f7 bc d2 e2 8a bc
       -0.005333671 0.014690205 -0.030176181 -0.01695386
0001e0 76 f2 87 bc 39 77 1b bc 65 0b 93 bc b5 7f 32 3c
       -0.016595107 -0.009488874 -0.01794977 0.010894706
0001f0 9b 0c 01 bd b4 86 30 3c 61 87 c9 bc 33 07 b2 bc
       -0.031506162 0.010774303 -0.024600687 -0.021731948
000200 f9 17 0e bc ca f1 87 3b 29 b0 82 bc c4 c1 9c bc
       -0.008672708 0.0041486965 -0.01595314 -0.019135363
000210 20 19 9a 3b 20 74 a4 3c 90 28 27 3c ad 9a 88 3b
       0.004702702 0.020074904 0.010202542 0.0041688294
000220 94 e4 85 bc e0 de 72 3b e7 01 c7 3c b9 86 57 3c
       -0.016344346 0.0037059113 0.0242929 0.013154679
000230 3e ca 46 bb a1 7f 92 bb c5 c1 31 3d 92 66 54 ba
       -0.0030332948 -0.004470781 0.043397684 -0.00081024424
000240 72 1c 18 3d b4 2a 04 3c 00 12 b5 3b 71 19 0a 3c
       0.037136503 0.008066822 0.0055258274 0.008428917
000250 bd 85 49 bd 97 96 cc 3b de cc eb 3c 8f 78 6b 3c
       -0.04919981 0.0062435376 0.028784212 0.014372005
000260 44 28 97 bb 42 97 84 3c 57 83 c4 bb 50 8c 8a bc
       -0.0046129543 0.016185407 -0.0059971022 -0.01691261
000270 8f 80 a5 3c 94 77 29 3d 79 c8 a2 bc 0a c7 70 3c
       0.020202903 0.041373804 -0.019870983 0.014695892
000280 fe 2a e1 3c 2f 6e ff 3b d2 27 9c 3c 4b 6e 49 bb
       0.02748632 0.0077951173 0.019061957 -0.0030735906
000290 7b 6d a2 bc d7 51 f2 3b 4d 9b 07 bd a2 a3 97 3c
       -0.019827595 0.00739501 -0.03310709 0.018510643
0002a0 8c 12 65 3b a5 f0 ed bb 8a ab cf 3b bd 05 a9 bc
       0.0034953682 -0.007261353 0.0063375877 -0.020632619
0002b0 db 03 e4 3c 5c 87 db bb 53 c7 b2 3c 9d 64 7e bb
       0.02783387 -0.0066994857 0.02182356 -0.0038817294
0002c0 1f 06 94 bb 35 e8 5a bc 5b d9 22 bc c9 a5 9e bc
       -0.0045173313 -0.0133610265 -0.009939517 -0.019366162
0002d0 51 b7 04 3b c9 da 89 bc d9 8c 56 bd f8 7b b8 bc
       0.0020250867 -0.016827958 -0.052380417 -0.02252005
0002e0 fc 64 51 3c 07 51 b6 bb 99 f1 2b ba dd 22 4f 39
       0.012780424 -0.0055638584 -0.0006559133 0.00019754046
0002f0 7b 54 1a bd b2 90 22 3b 0d 94 aa bb fd b3 c5 bc
       -0.037678223 0.0024805483 -0.0052056373 -0.024133677
000300 7d 9a 01 bc 7d 71 94 bb 34 45 4b 3b aa 46 75 3c
       -0.007910368 -0.0045301304 0.003101659 0.014970461
000310 18 33 a6 3b b8 ae ac 3c 5e 5a 10 bc 1c 11 c6 3c
       0.005072009 0.021079406 -0.008810608 0.02417808
000320 f7 89 19 bc 02 77 f0 ba 4d ff a7 3c ec 2f 64 3b
       -0.009371272 -0.0018346014 0.02050748 0.0034818603
000330 de aa e1 bc e2 93 69 bc 75 10 ef 3b 37 77 0a 3d
       -0.027547296 -0.014256449 0.007295663 0.0338051
000340 9f fa 1c 3d 38 44 e1 3b 19 3d a6 3b 6a ab 9d 3c
       0.03832495 0.0068745874 0.0050732014 0.019246776
000350 2e 00 23 ba 64 70 a3 bc 1e 39 e1 3c 17 90 35 3c
       -0.00062179833 -0.019951053 0.027493056 0.011081717
000360 e0 ca 05 3c 19 f9 a2 3c 0e 96 9f 3c bd 07 c6 3c
       0.008166045 0.01989417 0.019480731 0.024173612
000370 26 5b d5 bc ee 32 63 3d c7 78 4f 3d 00 9a b7 bb
       -0.02604444 0.055468492 0.05065229 -0.005603075
000380 6d d1 98 3c ef a8 08 bd 27 e4 a7 3b 69 d4 3a 3c
       0.01865455 -0.033364233 0.0051236334 0.011403182
000390 7d c4 5a 3c 41 16 ac 3c 23 79 17 3c bf b3 93 bc
       0.0133525105 0.021006705 0.00924519 -0.018030046
0003a0 cc c1 a0 bc 3e b7 4b ba 07 ea d2 3b c7 f2 39 3c
       -0.01962366 -0.00077711407 0.0064365896 0.011349387
0003b0 34 31 b9 bb 79 9b 25 3d a2 fc ec 3b e4 c3 1c 3c
       -0.0056516174 0.040431473 0.0072322646 0.009568188
0003c0 e6 ea 33 bb 4a c9 ce 3c 89 44 d0 3b 74 f3 e1 bc
       -0.0027453243 0.025242466 0.0063558263 -0.027581908
0003d0 58 a0 09 bd d2 1c c9 3c 87 c4 15 bd 26 5a ed 3b
       -0.03360018 0.024549875 -0.036564376 0.0072434125
0003e0 27 3d 5d 3c 52 bb 19 3c 90 5a 12 bc 10 5b 50 3c
       0.013503349 0.00938304 -0.008932725 0.0127170235
0003f0 16 d1 19 3c 05 65 d3 3c 86 81 a1 3c 13 82 cc bc
       0.009388229 0.025805006 0.019715082 -0.024964368

transformer.h.0.ln_1.weight f4 [32]
000000 00 00 80 3f 00 00 80 3f 00 00 80 3f 00 00 80 3f
       1.0 1.0 1.0 1.0
000010 00 00 80 3f 00 00 80 3f 00 00 80 3f 00 00 80 3f
       1.0 1.0 1.0 1.0
000020 00 00 80 3f 00 00 80 3f 00 00 80 3f 00 00 80 3f
       1.0 1.0 1.0 1.0
000030 00 00 80 3f 00 00 80 3f 00 00 80 3f 00 00 80 3f
       1.0 1.0 1.0 1.0
000040 00 00 80 3f 00 00 80 3f 00 00 80 3f 00 00 80 3f
       1.0 1.0 1.0 1.0
000050 00 00 80 3f 00 00 80 3f 00 00 80 3f 00 00 80 3f
       1.0 1.0 1.0 1.0
000060 00 00 80 3f 00 00 80 3f 00 00 80 3f 00 00 80 3f
       1.0 1.0 1.0 1.0
000070 00 00 80 3f 00 00 80 3f 00 00 80 3f 00 00 80 3f
       1.0 1.0 1.0 1.0

transformer.h.0.ln_1.bias f4 [32]
000000 00 00 00 00 00 00 00 00 00 00 00 00 00 00 00 00
       0.0 0.0 0.0 0.0
000010 00 00 00 00 00 00 00 00 00 00 00 00 00 00 00 00
       0.0 0.0 0.0 0.0
000020 00 00 00 00 00 00 00 00 00 00 00 00 00 00 00 00
       0.0 0.0 0.0 0.0
000030 00 00 00 00 00 00 00 00 00 00 00 00 00 00 00 00
       0.0 0.0 0.0 0.0
000040 00 00 00 00 00 00 00 00 00 00 00 00 00 00 00 00
       0.0 0.0 0.0 0.0
000050 00 00 00 00 00 00 00 00 00 00 00 00 00 00 00 00
       0.0 0.0 0.0 0.0
000060 00 00 00 00 00 00 00 00 00 00 00 00 00 00 00 00
       0.0 0.0 0.0 0.0
000070 00 00 00 00 00 00 00 00 00 00 00 00 00 00 00 00
       0.0 0.0 0.0 0.0

transformer.h.0.attn.c_attn.weight f4 [96, 32]
000000 87 01 87 3c 05 cb 50 bc 35 67 6d bc 93 da 20 3c
       0.01648022 -0.012743716 -0.0144899385 0.009817737
000010 f3 39 c6 3a c6 34 ab 3b e2 25 43 3c 09 54 95 3c
       0.0015123471 0.005224797 0.011910887 0.018228548
000020 67 1b 01 bd 91 75 8c 3c 1e 5f 59 bc be ff 10 3c
       -0.031520274 0.017145904 -0.013267307 0.008850036
000030 0d ba 11 3d 4e dc 97 bc a0 81 3a 3b 79 5d fb 3c
       0.035577822 -0.018537667 0.002845861 0.03068422
000040 3f 10 0d 3a 81 13 a4 3c 53 da c4 bc 67 7f 74 bb
       0.0005381144 0.020028831 -0.024029886 -0.0037307383
000050 dd c6 37 bc cb fd fb 3b 77 13 1d bd 9e 0f a2 3c
       -0.011216846 0.0076901666 -0.03834864 0.019782837
000060 af 1b 04 bd 67 54 28 3d 95 84 b5 bc 49 11 b5 bc
       -0.032252964 0.041096117 -0.022157947 -0.022102969
000070 d1 92 94 bb 32 bb ef 3b 9b 82 f3 3c e3 5c e8 3b
       -0.0045341034 0.0073160166 0.029725363 0.007091151
000080 6b 40 85 3c 89 6c 92 3c 9c 47 18 bd be 17 ed 3c
       0.016266068 0.01787402 -0.037177667 0.028941985
000090 57 ca 44 3b 40 99 82 3b fe 68 07 3c 32 54 09 bd
       0.003002783 0.003985554 0.008264778 -0.03352756
0000a0 53 3c 6e bb e7 7b 96 bc fa 2e 87 3b 42 bf b4 3b
       -0.0036351874 -0.018369628 0.004125473 0.005515964
0000b0 ee f0 72 bc 7e 7b 9f bb d9 7d de bc 34 65 66 bc
       -0.01482795 -0.0048670163 -0.027159618 -0.014062215
0000c0 8d 42 39 bd f3 30 a5 bb 99 a2 50 3d a0 99 a7 3c
       -0.045229483 -0.0050412356 0.050936315 0.020458996
0000d0 27 1a a8 bc f7 ac 11 bd 12 9a b8 bb 2b 47 c2 bc
       -0.020520283 -0.035565343 -0.005633601 -0.023715576
0000e0 7f 3e 0f 3c 21 1b d5 3b 4b 16 33 3d 74 ad 8f bb
       0.008742928 0.006503478 0.043722432 -0.004384691
0000f0 6d 36 a2 bc ee 77 36 3d a0 c3 9e 3b 00 f6 31 bc
       -0.019801343 0.044547968 0.0048450977 -0.010861874
000100 39 2f d9 bb 5e 3c 66 3b c9 69 66 3c 2a b7 96 bc
       -0.006627944 0.0035131196 0.014063307 -0.018397886
000110 c5 a9 b4 3b 6b e5 93 3b 27 bd a5 bc 5c 07 9e ba
       0.005513402 0.0045134327 -0.020231796 -0.0012056637
000120 77 3b 37 bc d8 8e fe 3b 30 f3 d1 3c 60 00 a6 3c
       -0.011183611 0.007768493 0.025628656 0.02026385
000130 ce f5 ba bc 1c f6 4f bb 24 e0 43 bc f5 52 44 bc
       -0.022822287 -0.0031732386 -0.011955295 -0.011982669
000140 c5 08 78 bc cf 98 98 3c a9 a9 4e bb 1d 9a d9 3b
       -0.01513881 0.018627552 -0.003153423 0.006640686
000150 82 31 44 3a 09 10 9f bc 35 a6 ec 3c 5d 1e 71 3c
       0.0007484184 -0.019416826 0.028887847 0.014716712
000160 8d 45 8d 3b 8c 57 87 3c 49 fb 63 bc 9b ff a7 3c
       0.0043112696 0.016521238 -0.0139148915 0.020507624
000170 1d 4e 5e 3a a5 01 ce 3b e7 7c c4 bc ca 5e 31 bc
       0.0008480268 0.006286817 -0.02398534 -0.010825822
000180 f8 1c d4 bc dd a1 d1 bc 9c 73 7b 3c 52 25 fd 3c
       -0.02589272 -0.025589878 0.015347388 0.030901585
000190 4c 23 77 3c 18 f0 26 3d 6c 4c e0 bc 6d 5c a7 3c
       0.015084099 0.040756315 -0.02738019 0.020429814
0001a0 ec 62 1a bc 54 f2 88 3c cb e5 15 3d 37 3b bd 3c
       -0.009422999 0.016717114 0.0365961 0.023099525
0001b0 97 74 b2 3c 29 78 33 3c 99 4d f4 3c cc dc d9 3c
       0.02178411 0.010953941 0.029822158 0.026594542
0001c0 db 10 b7 3c 1c 66 74 3c 36 6d 01 3c 26 16 03 bb
       0.022346905 0.014916923 0.007899573 -0.0020002215
0001d0 b0 70 95 bc f8 64 28 bc b0 bf ce bb ae 9e cc bc
       -0.01824221 -0.010277979 -0.006309472 -0.024978008
0001e0 c5 89 52 3c fe d7 cb bb c6 c8 6a 3c 2b 2d ce bc
       0.01285023 -0.0062208166 0.014330095 -0.025168022
0001f0 59 4f 29 3c 7e b7 ff 3c 89 2a c6 3c b2 6c 1b 3a
       0.010333859 0.031215426 0.024190204 0.00059289776
000200 15 c6 d8 3c d7 db 26 3d 13 eb ce bc 8e 8b 9e bb
       0.02646164 0.040737 -0.025258576 -0.0048384136
000210 18 8a 62 3c 8d 0e 04 bd c2 fc 11 3c e0 5c e8 3c
       0.013826869 -0.03224044 0.00891036 0.028364599
000220 e9 85 02 bd 3c 3c b2 bb f4 55 c8 3b ee fe 98 3a
       -0.031865988 -0.0054393094 0.006113762 0.0011672655
000230 36 17 a3 3b 05 ca a0 bc c4 cd ae 3c dc 75 93 3c
       0.004977132 -0.01962758 0.021338351 0.018000536
000240 64 4a 03 bc ef 4a 15 ba 5e d9 dc 3c 29 b2 5f bc
       -0.008013342 -0.0005695065 0.026959118 -0.013653317
000250 ad a5 04 3d 32 d9 b7 3c a9 19 03 3d 77 d0 8d bc
       0.032384563 0.022442434 0.032006893 -0.017311318
000260 99 e1 dc 3b 07 db 28 bb 3e c9 ff 3b 1e 6f b8 3c
       0.0067407605 -0.0025765316 0.0078059724 0.022513922
000270 1e dc 1b 3b c4 65 95 bc 1b 51 1a 3d 61 84 eb bc
       0.0023782323 -0.018237002 0.037675004 -0.028749647
000280 b1 bd 1a 3c aa 14 ce 3c f9 80 77 3a 40 14 32 bc
       0.00944464 0.025156338 0.00094415207 -0.010869086
000290 4b 10 07 bc 39 90 ce 3c ba af 96 3a ab 5c c8 bc
       -0.008243631 0.025215255 0.0011496462 -0.02445825
0002a0 6b 2c 81 bc 64 70 a5 3b 79 c2 5d 39 61 0f f1 bc
       -0.01576825 0.0050487984 0.00021148649 -0.029426279
0002b0 0c 06 72 bb 04 cb 36 3c f3 76 0f bc e2 0b 30 bb
       -0.0036929874 0.011156801 -0.008756387 -0.0026862551
0002c0 10 ca b4 3c 74 00 c0 bb c9 4f f8 3b b3 bf 60 3c
       0.022069007 -0.005859429 0.0075778705 0.01371758
0002d0 c6 9e ec 3c 7c e0 03 bc 90 ee e4 bc 66 99 f9 ba
       0.028884303 -0.008049127 -0.027945787 -0.0019042909
0002e0 b7 26 c1 3a 75 84 bf 3b ea 59 40 3c 83 93 e9 3c
       0.0014736269 0.0058446475 0.011740187 0.028512722
0002f0 1f 98 85 3c 35 f1 56 bc 34 a3 2a bd f9 79 a8 3c
       0.016307889 -0.013119032 -0.04165955 0.020565974
000300 32 fd e7 bc e6 55 81 3c 6f e8 12 bd 50 00 ae bc
       -0.028318975 0.01578803 -0.035866197 -0.021240383
000310 bc 1d dc 3c 77 37 3b 3c 4e 31 8c bc b6 c6 95 3c
       0.026869647 0.011426798 -0.017113354 0.01828323
000320 2b 1a 4f 3c 39 e6 82 3c 5b 1a d2 bc a6 5c 94 bc
       0.012640516 0.01597892 -0.025647333 -0.018110584
000330 8e 37 a1 3c 9b 74 2e 3c fd f6 98 3c 06 1f c7 3c
       0.01967981 0.010647918 0.01867246 0.024306785
000340 44 b3 83 3c 37 a7 ca bc 61 ae be bc ab 02 3c 3b
       0.016076691 -0.024737937 -0.02327651 0.0028688114
000350 02 68 83 bc b9 95 cd 3b 2e 09 2b bc 4b 86 a1 bc
       -0.016040806 0.006273952 -0.0104392 -0.019717356
000360 ef c5 27 3d a5 89 2b bb 05 fc f4 3c 81 ec 7c 3c
       0.04096025 -0.0026174572 0.029905329 0.015437246
000370 10 ed 7a bc a0 54 3c bb 77 59 a2 3c b9 01 83 3c
       -0.015315309 -0.0028736964 0.01981805 0.015992032
000380 2a 90 ca bc 94 7d a1 3b 8e 56 ac bc d2 de be bc
       -0.024726946 0.0049283 -0.021037366 -0.023299608
000390 6b de 9b 3a 70 23 c9 3b be 01 a6 bc 92 17 c5 bb
       0.0011891847 0.0061382577 -0.020264503 -0.0060147727
0003a0 74 33 92 bb 8e ce 9a bc 6a 24 e6 bb 58 e2 52 3c
       -0.0044617 -0.018897321 -0.007023384 0.012871347
0003b0 de c2 05 bc 1d 37 18 3b a6 b8 b6 bc d5 52 63 bc
       -0.008164136 0.002322621 -0.022304844 -0.013874729
0003c0 2a 7e 04 bd 83 c8 8b bc 0b 2b 2e 3d e9 e6 26 bd
       -0.032346882 -0.017063385 0.042521518 -0.040747557
0003d0 54 31 60 3d 0f c5 09 3c 04 fa 09 3c c2 05 1c 3c
       0.054734543 0.008408799 0.008421425 0.009522857
0003e0 25 16 70 bc b7 56 7d 3c 74 32 5e ba 95 70 53 bc
       -0.014653717 0.015462569 -0.0008476146 -0.01290526
0003f0 2e 68 28 3d fe 73 d6 3c db 8c 88 bc bb 93 d1 bb
       0.04111498 0.026178356 -0.016668728 -0.0063957847

transformer.h.0.attn.c_proj.weight f4 [32, 32]
000000 f9 dc 50 bc fd 7c b5 bc 19 b1 a3 bc ad d4 89 bc
       -0.0127479965 -0.022154326 -0.019981908 -0.016825045
000010 59 bc e8 bc 1d e2 d4 ba ba 70 9a 39 9c 90 15 3d
       -0.028410124 -0.0016241703 0.00029457157 0.036514863
000020 21 44 50 bb 27 0e 15 3c 02 5b 74 bc 58 cc 8a bb
       -0.003177889 0.009097612 -0.014914276 -0.0042357855
000030 a2 fa 3f 3c 84 49 05 bc 16 d2 12 3d 27 cc 36 3b
       0.01171747 -0.008135203 0.035844885 0.002789268
000040 93 90 57 bc 50 14 9d bc 49 0a 9b 3b 19 50 08 bd
       -0.013157028 -0.019174725 0.0047314507 -0.033279512
000050 d3 cc 84 bb d7 c0 dd 3c 22 5d 07 bc ef 14 53 3c
       -0.0040527373 0.027069492 -0.008261951 0.012883409
000060 0f 3d a9 bb 59 e2 00 bd 62 c9 96 3a 3d b3 2c 3c
       -0.0051647495 -0.031465862 0.0011504109 0.010540781
000070 46 e7 65 bb 81 47 33 bb 94 dd 1c bc 95 e6 54 b9
       -0.0035080477 -0.0027355852 -0.009574313 -0.00020303794
000080 4b fc c8 bc 77 9b 65 3c 7d 50 de bb e7 a2 75 bc
       -0.024534365 0.0140141165 -0.0067844973 -0.014992452
000090 8d b8 95 bc b8 df b8 3c 04 b9 21 3c d7 9f 35 bc
       -0.018276477 0.022567615 0.009870771 -0.011085472
0000a0 ac 30 14 bd ad 52 87 39 25 5e c3 3c 42 fa 31 3c
       -0.03617923 0.00025810805 0.023848603 0.010862889
0000b0 bf 7f 19 bc 3b 64 98 3b fd 7f 75 3a 0c 69 fb bc
       -0.009368836 0.0046506203 0.000936508 -0.030689739
0000c0 e6 b7 e4 3c 89 a3 63 bb 89 d1 b9 bb 58 e0 7a 3c
       0.02791972 -0.0034734926 -0.0056707305 0.015312277
0000d0 55 82 8e 3c 41 e4 83 3c 2a ad 46 3c 80 e9 84 3b
       0.017396132 0.01610005 0.0121262465 0.0040561557
0000e0 1c 7f 52 bc b2 de 17 bd 46 17 04 3d 66 d4 4e bc
       -0.012847688 -0.037077613 0.032248758 -0.012623882
0000f0 d9 d8 01 3d 2f 51 b1 bb 13 62 90 bc 1b 03 ac 3c
       0.031700943 -0.005411289 -0.01762489 0.020997575
000100 bb b5 2d bb 88 d5 80 bb e2 63 d3 bc 5a 03 9c 3b
       -0.0026506025 -0.003931705 -0.025804464 0.0047611417
000110 42 ef 1e bb f7 82 79 bc 97 88 8c 3b 69 40 ea bc
       -0.0024251495 -0.015228978 0.0042887437 -0.028595166
000120 8f 2d ff 3c 12 31 04 bc c6 1a bb 3c 3b 64 be 3c
       0.031149654 -0.00806834 0.022839915 0.023241153
000130 6e a0 b6 3c 97 58 ae bb 6a 87 47 3c 2c 0c 5b 3b
       0.022293296 -0.0053206193 0.012178281 0.0033424003
000140 9b 55 86 bc 74 92 4f bc b3 5b 42 3c 99 eb 04 3c
       -0.016398242 -0.0126691945 0.011862683 0.0081128115
000150 13 67 c8 3b 7e 10 ea bc 99 7f 52 3c 4b 62 1a bd
       0.006115803 -0.028572317 0.012847804 -0.037691396
000160 4b b6 d0 3c 05 0a bc 3b a5 d5 fa bb 66 2b f5 bb
       0.025477549 0.005738499 -0.007654863 -0.00748198
000170 4f 65 d1 bc 70 07 a5 bc 3b 73 1a 3c 1d f9 99 3c
       -0.025561003 -0.020145148 0.009426887 0.018795544
000180 95 d7 9e bc 19 18 18 3d 5c d1 27 3d 8d 73 c2 3c
       -0.019389907 0.037132356 0.040971145 0.02373674
000190 0d 64 22 3c 5c 7e b8 bc 2f f9 fb 3c 5c 47 b4 3c
       0.009911549 -0.02252119 0.030758468 0.022006683
0001a0 a2 17 07 bc e6 78 86 3c 17 46 b7 bb f5 a8 57 bc
       -0.008245381 0.01641507 -0.005593072 -0.013162841
0001b0 5a b1 a1 3b 6a 63 13 bd 41 09 e1 bc da ee 92 bc
       0.004934472 -0.03598348 -0.027470233 -0.017936159
0001c0 b8 38 39 bc c6 a6 1e bc d0 e1 4b bb ea 5c cf bb
       -0.011305027 -0.009683317 -0.0031109937 -0.006328215
0001d0 10 78 60 3c d7 68 85 3b 9e cc af 3c dc 42 d0 3c
       0.0137005 0.004071336 0.021459874 0.025422506
0001e0 27 34 02 3c b9 59 02 3d 64 9e 89 3c 2f 5a 84 3b
       0.007947004 0.031823847 0.01679916 0.004039071
0001f0 09 24 85 bc d6 c9 0e 3c 58 39 4f bc f7 d0 72 bc
       -0.016252534 0.008715114 -0.012647949 -0.014820329
000200 47 7d d1 bc bd 1b 57 bb 92 b6 9b bb ed 63 80 3b
       -0.025572432 -0.003282293 -0.0047519887 0.003918162
000210 a7 19 1e bd 29 8f dc bc 38 a5 e0 bb 0c ae a3 bc
       -0.038598683 -0.026923733 -0.006855633 -0.019980453
000220 22 6d ce 3b 8e 5e 95 bc 07 bb 22 bb 69 21 d9 bc
       0.0062996307 -0.018233564 -0.0024830715 -0.026505189
000230 b9 fc 73 bc 72 5b d0 bc b8 4b 29 bc 90 32 a4 3c
       -0.014891797 -0.02543423 -0.010332994 0.020043641
000240 37 93 6f 3c 9c 2a 8e bb e5 db 3d bc 41 b7 44 3c
       0.014622501 -0.0043385755 -0.0115880715 0.012006582
000250 a5 25 f4 bc 13 b3 b0 3a 0a f7 26 bb c0 9d 9f 3c
       -0.029803107 0.0013481103 -0.0025476837 0.0194844
000260 6e 23 b5 3c 06 88 b8 bc 2a 47 c9 bc 3b a1 fc b9
       0.02211162 -0.022525799 -0.024570066 -0.00048185312
000270 d3 80 1e bc c3 3e 0a bc f9 cf 97 bc f7 88 92 bb
       -0.009674269 -0.008437815 -0.018531786 -0.004471894
000280 1c 0b b8 bc 2f 51 79 bc 85 f0 83 3c 06 79 62 bd
       -0.022466235 -0.01521711 0.0161059 -0.0552912
000290 20 d4 27 bb 94 1f c5 3c 0f df 4f 3c e2 9e de 3b
       -0.0025608614 0.02406291 0.012687459 0.0067938427
0002a0 9b 1e 71 bb 12 bf 69 3c 69 c6 0d 3c 86 2b 65 3c
       -0.0036791924 0.014266746 0.008653262 0.013987428
0002b0 ae 94 c3 bc 1e aa a1 bc 0f 6e 3d 3c ea e5 6a bc
       -0.023874607 -0.019734439 0.011561885 -0.014337042
0002c0 39 e6 64 bc bc 5b 9a bb 0b 08 05 3d 84 6d 24 3d
       -0.013970905 -0.0047106426 0.032478373 0.040143505
0002d0 49 f1 d4 bc 0d 08 13 bd 13 83 39 bd d1 8d 17 3d
       -0.02599396 -0.03589635 -0.045291018 0.03700048
0002e0 64 d9 c3 bc 9c 71 10 3d 72 51 dd bc 2c 6a 5e bc
       -0.02390737 0.035264596 -0.027016375 -0.013575118
0002f0 97 af 09 bc 13 ab 87 3c 1e a9 69 3c 74 14 b1 3c
       -0.00840368 0.016561067 0.014261512 0.021616198
000300 45 af a4 3c da 8e 01 3d 54 c1 9a bb fb 0e d8 3b
       0.020103106 0.031630374 -0.0047227535 0.0065935827
000310 40 66 df bc 14 58 30 3c a7 96 d7 bb 5e e7 23 3b
       -0.027270436 0.010763187 -0.0065792385 0.0025009732
000320 21 49 75 3c 75 40 44 3c 3c 31 63 3b 02 69 32 3b
       0.014971049 0.011978258 0.0034666797 0.0027223234
000330 86 1b 10 b9 a0 f5 5f bd ea 3c f4 b9 85 cf 26 3c
       -0.00013743163 -0.054677606 -0.0004658469 0.010181312
000340 37 87 64 3c 2b 21 4d bc 54 fb 52 3c 02 6c 44 bd
       0.013948253 -0.012520115 0.012877304 -0.047954567
000350 f2 a4 10 bc 12 8b 16 bd 96 09 aa bc bd 73 4b bc
       -0.0088283885 -0.03675372 -0.020756524 -0.012417731
000360 a7 34 06 bd 52 e2 a9 3c 14 a1 81 3a 30 68 ec 3a
       -0.032765057 0.0207378 0.0009889924 0.0018036421
000370 a2 cd a1 bc d0 bb 97 bc 5e 13 e7 3c 18 de 3b bb
       -0.019751374 -0.018522173 0.028207477 -0.0028666314
000380 95 c1 59 bb 9d 2f df 3b 12 ee 89 bc 2d 40 9c 3c
       -0.0033226956 0.006811096 -0.016837154 0.01907357
000390 a5 f5 2d 3d ed b4 38 bb fd ea 3e 3c 8b 93 54 bb
       0.042470593 -0.0028184012 0.011652705 -0.0032436575
0003a0 66 dc d5 3b 46 f4 31 bc 60 fb 8b 3c 44 0d cc 3b
       0.0065265177 -0.010861462 0.017087638 0.0062271673
0003b0 52 ee d7 3c 4b 8d 2e 3d b7 1a 30 3c c7 cc ac bc
       0.026358757 0.042615216 0.010748557 -0.02109374
0003c0 7d 6a 7c 3c 8a 2a 6d 3c 14 2d 8f 3c e9 e1 da bc
       0.015406248 0.014475474 0.01747755 -0.02671905
0003d0 30 b9 0f bc 19 81 6b bb 01 85 09 3c 13 8b 71 bc
       -0.0087721795 -0.0035935102 0.008393527 -0.0147426305
0003e0 42 45 f6 3b fc b3 d2 b8 b7 42 6f 3d 7c 0b be bb
       0.0075155804 -0.00010047105 0.058413234 -0.005799709
0003f0 92 a0 41 3d a7 59 8f 3c 44 8b 1d 3b 5c 83 f1 3b
       0.047272272 0.017498804 0.0024039308 0.0073703956

transformer.h.0.ln_2.weight f4 [32]
000000 00 00 80 3f 00 00 80 3f 00 00 80 3f 00 00 80 3f
       1.0 1.0 1.0 1.0
000010 00 00 80 3f 00 00 80 3f 00 00 80 3f 00 00 80 3f
       1.0 1.0 1.0 1.0
000020 00 00 80 3f 00 00 80 3f 00 00 80 3f 00 00 80 3f
       1.0 1.0 1.0 1.0
000030 00 00 80 3f 00 00 80 3f 00 00 80 3f 00 00 80 3f
       1.0 1.0 1.0 1.0
000040 00 00 80 3f 00 00 80 3f 00 00 80 3f 00 00 80 3f
       1.0 1.0 1.0 1.0
000050 00 00 80 3f 00 00 80 3f 00 00 80 3f 00 00 80 3f
       1.0 1.0 1.0 1.0
000060 00 00 80 3f 00 00 80 3f 00 00 80 3f 00 00 80 3f
       1.0 1.0 1.0 1.0
000070 00 00 80 3f 00 00 80 3f 00 00 80 3f 00 00 80 3f
       1.0 1.0 1.0 1.0

transformer.h.0.ln_2.bias f4 [32]
000000 00 00 00 00 00 00 00 00 00 00 00 00 00 00 00 00
       0.0 0.0 0.0 0.0
000010 00 00 00 00 00 00 00 00 00 00 00 00 00 00 00 00
       0.0 0.0 0.0 0.0
000020 00 00 00 00 00 00 00 00 00 00 00 00 00 00 00 00
       0.0 0.0 0.0 0.0
000030 00 00 00 00 00 00 00 00 00 00 00 00 00 00 00 00
       0.0 0.0 0.0 0.0
000040 00 00 00 00 00 00 00 00 00 00 00 00 00 00 00 00
       0.0 0.0 0.0 0.0
000050 00 00 00 00 00 00 00 00 00 00 00 00 00 00 00 00
       0.0 0.0 0.0 0.0
000060 00 00 00 00 00 00 00 00 00 00 00 00 00 00 00 00
       0.0 0.0 0.0 0.0
000070 00 00 00 00 00 00 00 00 00 00 00 00 00 00 00 00
       0.0 0.0 0.0 0.0

transformer.h.0.mlp.c_fc.weight f4 [128, 32]
000000 6d 5b 8a bc 6c b3 63 bc eb 8a 85 bc 5b 47 64 3c
       -0.016889298 -0.013897758 -0.016301593 0.013933028
000010 e5 a2 32 3c d7 6d ba 3b 79 be eb bb ad 99 8d bc
       0.010903095 0.0056893635 -0.007194337 -0.017285192
000020 b8 90 22 ba 4b 52 c5 bc fd cd 96 39 d7 f8 a6 3c
       -0.00062013743 -0.024087092 0.00028763703 0.020382328
000030 f2 31 36 bd 9b 20 3d bd 04 76 65 bc 2d a3 48 bc
       -0.044481225 -0.046173673 -0.014005188 -0.012245935
000040 cd 49 9e bc 60 fd d7 3c f0 58 99 bc 67 98 b4 ba
       -0.0193223 0.026365936 -0.018719167 -0.001377833
000050 e2 f1 72 3b 3d 34 98 ba a7 3a 33 bd f7 1a 36 3c
       0.0037070443 -0.0011612248 -0.043757107 0.011114827
000060 e5 53 d1 3b 59 0f 30 3d af 7e 58 bc 3e 1f 43 bd
       0.006388175 0.042983387 -0.0132137975 -0.047637217
000070 c9 78 bc bb 82 0f ac 3b f4 14 c5 3c ce c3 50 bd
       -0.0057517034 0.005250872 0.024057843 -0.050967984
000080 3d 8b c0 bc 5b 78 7c bc f3 50 44 bd 60 24 f0 3c
       -0.023503894 -0.015409554 -0.04792876 0.02931422
000090 d0 a3 49 3c 25 ff b2 bc fc 33 df 3b 85 46 ae 3c
       0.012307122 -0.021850178 0.006811617 0.02127386
0000a0 b4 d7 0d bc 93 39 a7 3a c8 70 88 bc e3 b2 0d 3a
       -0.008657385 0.0012758247 -0.01665534 0.00054053793
0000b0 c9 62 24 3b f2 fd 2f 3d c7 38 90 bc ac 89 78 bb
       0.0025083295 0.04296679 -0.017605199 -0.0037923856
0000c0 d5 30 51 3c 54 06 ab b9 bd e2 a2 bc 22 6e 34 bc
       0.01276799 -0.00032620376 -0.019883508 -0.011012586
0000d0 f3 47 2c 3c 2a 2e ff 3c 24 09 a8 bc ee 5b 56 bc
       0.010515201 0.031149942 -0.020512171 -0.013083441
0000e0 4e 54 5c bc 5d f6 c4 3c 3e 75 47 bb 24 3c 27 bb
       -0.013447834 0.024043256 -0.0030434872 -0.0025518024
0000f0 5f 54 08 3d 5b 7e 60 bc a2 7d 65 bc 7d 72 3c ba
       0.033283588 -0.0137020005 -0.014007004 -0.0007188691
000100 17 5c ad bc 64 f6 a5 bc 00 6c 22 3c f2 8d 68 bc
       -0.021162076 -0.02025909 0.0099134445 -0.014193999
000110 f5 6c 44 bc b4 f3 e0 3a cc c9 d2 3b d7 8e c4 bc
       -0.011988868 0.0017162473 0.0064327475 -0.023993893
000120 9e 4a 1e 3d da af a3 bc 33 0a 5c bc f2 b1 a9 3c
       0.03864538 -0.019981313 -0.013430166 0.020714734
000130 d8 1a 27 bc 2b 1d 08 3b d4 ae 19 3d a6 e7 09 bd
       -0.010199271 0.0020769339 0.037520245 -0.033668183
000140 c3 d7 00 bd fb 75 dd bc 8a 7d 0e 3b 18 04 c8 3b
       -0.031455766 -0.027033797 0.0021742308 0.0061040036
000150 ce be 49 bb 41 21 38 3c fb 4c 99 bc 9f f4 97 ba
       -0.0030783894 0.011238397 -0.018713465 -0.0011593289
000160 79 c8 74 bb e6 96 53 3c 79 f9 9c 3b 3b f8 3e 3a
       -0.0037350936 0.012914395 0.0047904816 0.0007284914
000170 d2 b9 e1 bc fd 57 94 bc 6f bb 83 3b ca 4e c0 3a
       -0.027554426 -0.018108362 0.0040201466 0.0014671918
000180 88 cb 8c 3c cc 48 13 3c 6d 8d 1d bd a7 c6 f2 3b
       0.017186895 0.008989524 -0.038464952 0.007408935
000190 ed 6b 19 bd 34 60 cb b9 59 2a 36 3d e9 08 e3 bc
       -0.03745644 -0.00038790854 0.04447398 -0.02771421
0001a0 ca 18 67 3b a3 e5 eb 3c 20 4e 12 3d a6 41 0a 3c
       0.0035262578 0.028796023 0.035719037 0.008438503
0001b0 2b 5e da 3b 65 1e 09 3c fb b5 12 3c c4 a2 57 bb
       0.0066640577 0.008369063 0.00895452 -0.0032903412
0001c0 77 35 f3 bc 93 55 65 3c ec 01 6a bc 0f 9b c3 ba
       -0.02968858 0.013997453 -0.014282685 -0.001492353
0001d0 19 74 06 bd 46 36 8a bc 01 e1 3f bc 6e e2 33 3b
       -0.032825563 -0.016871583 -0.01171136 0.0027448195
0001e0 8d 7e b0 3c a6 2e 92 3c 07 1e 02 3a 29 7b 8c 3c
       0.02154472 0.01784451 0.0004963581 0.017148571
0001f0 29 ae 19 bb 15 57 11 3c f7 3a 14 bb 4f fd d7 3c
       -0.0023449755 0.00887086 -0.0022618154 0.026365904
000200 a6 f9 a0 bc 15 20 13 3c a4 68 b0 3a 07 f0 90 3a
       -0.019650292 0.008979817 0.001345892 0.0011057862
000210 57 83 27 3c ef e4 ce bc 9b 48 58 3c d5 f9 76 bc
       0.010224185 -0.025255648 0.013200904 -0.015074213
000220 d7 29 3b bb c9 03 4d bc e0 cd db 3c 7c fb f8 3b
       -0.0028558874 -0.0125131095 0.026831567 0.0075983386
000230 ca 71 03 bc 06 44 18 bd 34 b7 29 3c 1c 52 4a bc
       -0.008022735 -0.037174247 0.01035862 -0.012348678
000240 ad 72 b2 bb ed cb 29 3c 70 6b 4e bc cc df 77 3b
       -0.0054457993 0.010363561 -0.012598857 0.0037822602
000250 52 7a 18 3d 78 06 b1 3b ae c7 8c 3c bc 76 93 bb
       0.03722603 0.0054023825 0.017185058 -0.004500238
000260 b4 9d ec bb 09 75 11 bc b8 68 8e bb b1 b6 a3 b9
       -0.007220948 -0.008878001 -0.0043459795 -0.00031225898
000270 58 5d f8 bc 70 31 d8 3c 20 52 5d 3c 85 8d 39 3d
       -0.030317947 0.026390761 0.01350835 0.04530098
000280 d0 f3 dd bc b0 41 a5 bc aa aa 1e bd 06 44 1b bd
       -0.027093798 -0.020172924 -0.038736977 -0.03790667
000290 c5 e4 7c 3c f0 8a ac bc 37 a8 10 bd a7 a4 d6 3c
       0.015435402 -0.021062344 -0.035316672 0.02620156
0002a0 c6 b3 90 bc ec 17 f9 ba 0a ce 72 3c 0f 5e 15 bc
       -0.017663848 -0.0019004322 0.014819631 -0.009116664
0002b0 e3 6a 1a 3c 02 79 9b bc 57 65 93 3c f4 8c 82 bc
       0.009424898 -0.0189786 0.017992659 -0.015936352
0002c0 38 51 cd 3c 93 f2 a5 bb 02 c9 40 3c 05 bc e2 3b
       0.025063142 -0.0050643175 0.011766674 0.0069193863
0002d0 74 b8 05 3c 3e e1 18 3d cd aa b8 bb 26 6a c9 3c
       0.008161653 0.037324183 -0.0056355954 0.024586748
0002e0 45 72 b8 3b 84 d9 db bc 81 6c f4 3c 83 9d 71 3b
       0.0056288564 -0.026837118 0.029836895 0.0036867566
0002f0 38 39 dc 3c c4 29 15 bd e6 0d 5f bb 10 e2 14 3c
       0.026882753 -0.036416784 -0.0034035384 0.009087101
000300 74 45 4c bc 89 22 ad bc 19 b4 98 bb 1d a8 97 3c
       -0.012467731 -0.021134632 -0.004660141 0.01851278
000310 94 59 8e bb f2 89 58 3b 64 c1 1c bd a5 52 e3 bc
       -0.0043441746 0.0033041206 -0.03827037 -0.027749369
000320 af 06 c1 bc cf 83 49 3b 5b 11 1e bb d9 cf 13 3b
       -0.023562757 0.003074873 -0.0024119231 0.0022554307
000330 8b 06 0d 3c 22 aa 8c 3b 73 50 12 bd 9c d9 ae bc
       0.008607517 0.0042927423 -0.035721254 -0.021343999
000340 6b d5 6f 3c d7 15 4f bc 53 61 a6 bb 0b 93 e8 bc
       0.014638285 -0.012639484 -0.00507752 -0.028390428
000350 f7 73 24 bb cb 94 2d 3d 86 e7 9b 3c e9 e1 80 bb
       -0.0025093534 0.04237823 0.019031297 -0.0039331806
000360 4a 5c 30 3c 0b 41 72 bc b6 5e 13 3c fc c6 a9 bb
       0.010764191 -0.014786015 0.008994749 -0.0051811915
000370 cd f1 94 3b cd 35 9e bc f0 b3 ba 3a ce c6 36 3d
       0.0045454265 -0.019312764 0.0014244299 0.04462319
000380 d7 2d b8 bc 0b 46 5c 3b 8d 9b 17 3b 88 f8 8c bc
       -0.022482796 0.0033611085 0.0023133487 -0.017208353
000390 e9 99 96 3c 53 fe e5 bc 45 24 bb 3c ab 5c 9d 3c
       0.018383937 -0.028075373 0.022844443 0.019209227
0003a0 cb b1 09 3d dd f1 2b ba 02 ae 65 3c 7f 9f 9a bb
       0.033616822 -0.0006559173 0.0140185375 -0.0047187204
0003b0 88 1d 08 bc 69 05 4d bc f3 3a 52 bc 52 63 3b bc
       -0.008307822 -0.012513497 -0.012831437 -0.011437254
0003c0 7d c3 aa bc 26 9c f8 3c 0a d5 7d 3b 20 8f d7 bc
       -0.02084517 0.030347895 0.0038731718 -0.026313365
0003d0 19 01 04 bd 72 80 92 bb bb 81 13 3c 14 26 9b 39
       -0.03222761 -0.0044708783 0.009003098 0.00029592274
0003e0 06 3d a2 3c bc 1e fb bb 55 ee 44 bc de 9c bc 3c
       0.019804489 -0.007663576 -0.012019713 0.023024019
0003f0 4b 7a 41 bd 7e 8b 1b bd 22 ce 2a 3d 71 68 a2 bc
       -0.04723577 -0.037974827 0.04170049 -0.019825192

transformer.h.0.mlp.c_proj.weight f4 [32, 128]
000000 e9 51 45 bc 8b 0d 35 bd a2 5f 0e bc c0 7e b6 bb
       -0.012043455 -0.04420237 -0.008689793 -0.005569309
000010 06 9e 7a ba 35 45 df 3b 23 91 0b bd 57 b1 f4 3c
       -0.00095602905 0.00681367 -0.03407396 0.029869718
000020 2f 88 0b 3b 47 f3 91 bc b7 30 54 bc f8 33 63 bb
       0.0021290889 -0.017816199 -0.012951068 -0.0034668427
000030 c6 eb 85 3c d9 23 e0 3c 97 23 66 3c ee 96 20 bd
       0.016347777 0.027360843 0.014046571 -0.039206438
000040 87 af 34 bd 9b bf 12 3d 29 3f 05 bc 32 f9 6f 3c
       -0.04411271 0.03582726 -0.008132734 0.014646815
000050 04 34 4e bc b7 f9 d0 3c 37 dc 09 ba 5c 58 d0 bc
       -0.012585644 0.025509698 -0.000525895 -0.025432758
000060 04 58 ab bc 29 13 7e bb e1 95 c6 bc 9d 16 71 bc
       -0.020915993 -0.0038768745 -0.02424139 -0.014714864
000070 e7 f7 38 bb 39 d9 16 bc f9 d4 58 3c f7 01 ae ba
       -0.0028223933 -0.009207063 0.01323437 -0.0013275732
000080 05 fa 56 3c 37 e6 89 3d 30 33 8b 3c b8 47 2e bc
       0.013121133 0.06733363 0.016992182 -0.010637216
000090 25 35 47 3c 65 d7 08 3d c9 9f 1e 3d 5c aa 02 bc
       0.012158667 0.03340854 0.0387266 -0.007975187
0000a0 2f e7 80 3a d3 61 6c 3c f8 ca d2 3b f7 42 28 3a
       0.0009834523 0.01442762 0.006432887 0.000641867
0000b0 eb 08 ba bc 38 0c b8 3c 1e 69 c0 3c 73 f9 7b bc
       -0.02270933 0.022466764 0.023487624 -0.015379298
0000c0 db 7e 8d 3c 47 81 42 3c b4 2c 24 3c 0e f1 ca bb
       0.017272403 0.011871642 0.010020424 -0.0061932867
0000d0 0a ab d9 bc 84 85 3a bd 37 b5 f6 bc 8a c9 f9 3b
       -0.026570816 -0.045537487 -0.030115707 0.0076229023
0000e0 62 72 45 bd 01 15 b0 bc e4 82 0b bc d4 b3 12 3d
       -0.048204787 -0.02149439 -0.0085150935 0.03581603
0000f0 f6 3b 11 3c 21 b5 97 bc a2 94 88 ba 52 5c 4e bd
       0.008864393 -0.018518986 -0.0010420273 -0.050381012
000100 5d 53 d9 3b cb 5c 0c bc dc c5 75 bb 1e 79 b7 bc
       0.006632252 -0.008567045 -0.0037501967 -0.02239662
000110 e4 3f 1a bd fc d2 08 3d a6 25 a8 3b 79 62 7f 3c
       -0.037658587 0.033404335 0.005131441 0.015587443
000120 59 cd 02 bd ed 9a 96 bb 80 89 bb 3c a6 40 bb 3c
       -0.031934116 -0.0045961053 0.022892714 0.022857975
000130 8c 54 eb 3c 3e 93 22 ba 89 c8 47 bc 0e 4d 2e bc
       0.028726839 -0.00062017504 -0.012193807 -0.010638488
000140 b0 0b f0 bc e1 2b 7d 3b a4 49 0f bd 6b 0c 26 bc
       -0.029302448 0.003863089 -0.03498234 -0.010134797
000150 66 a3 e0 3c a4 20 9e 39 17 7f 78 3c 94 d5 a4 bc
       0.027421664 0.00030160428 0.015167019 -0.020121373
000160 8c 76 76 bc 3f b2 94 bc 8a ad ec 3c 29 05 5e bc
       -0.015042912 -0.0181514 0.028891344 -0.013551035
000170 0a 15 1a 3c 8e 8c 03 bc 42 29 5c bc 8a fd 5e bc
       0.00940443 -0.008029116 -0.013437571 -0.013610253
000180 02 4d 88 bc 4a e4 a7 bb 72 06 ef bc e1 aa b3 bc
       -0.016638283 -0.0051236497 -0.029177878 -0.021932067
000190 d4 45 09 3d ef 53 42 3c 78 a6 0c bc 69 6c 75 bc
       0.03351386 0.011860832 -0.008584611 -0.01497946
0001a0 85 06 5f bc ed 76 81 3c 65 31 44 3d 7c 92 f4 3c
       -0.013612394 0.015803779 0.04789867 0.029855005
0001b0 72 92 2c bc 50 0f 3b 3b f3 78 7e b8 8f 43 3e 3a
       -0.010532962 0.0028543063 -6.0670962e-05 0.0007257992
0001c0 71 49 14 3b 94 e3 28 3d 59 d3 f7 bc 7d 9e a3 3b
       0.0022626782 0.04123266 -0.030252146 0.0049932585
0001d0 87 df bc bc ef 3e a7 3c 1e 90 20 bc ee 97 43 bc
       -0.023055805 0.020415751 -0.009799985 -0.011938078
0001e0 29 97 17 bb f0 33 52 bc 7d b0 51 3d 6c 45 83 3b
       -0.002313087 -0.012829766 0.051193703 0.0040060785
0001f0 bb ec 8f 3c ad 78 ae 3c bd ec 8e 3c 85 f4 ca 3c
       0.017568937 0.021297777 0.01744687 0.0247748
000200 a4 08 88 ba 08 32 88 bc 6a bd 03 bb 7e 04 71 bb
       -0.0010378552 -0.01662542 -0.0020101913 -0.003677636
000210 67 ad d0 3b 8c d4 d8 bc 58 14 de b9 2a d6 a9 3c
       0.0063683274 -0.026468538 -0.00042358297 0.020732004
000220 fb aa 78 bc 10 79 17 3c a6 b1 27 bb b2 14 b6 3c
       -0.015177484 0.009245172 -0.0025588064 0.022226665
000230 22 07 83 3b 33 42 1d 3c fd 3b 1a 3c bb ff 4a 3c
       0.003998653 0.009598303 0.009413716 0.012390072
000240 34 6d 02 bd 12 5a 8d 39 ff 5c 06 3b 8a 7d 6d 3c
       -0.031842425 0.00026960723 0.0020502207 0.014495263
000250 c6 54 72 b9 38 fe de bc 61 61 d4 b9 60 a1 89 bc
       -0.00023110499 -0.02722083 -0.00040508344 -0.016800582
000260 8a 89 cc 3c 3d 7c f7 bc 44 42 2a 3d 66 15 0c bd
       0.024967927 -0.030210609 0.041567102 -0.034200095
000270 fb 85 80 3c 22 23 59 3d a9 37 df 3c c8 52 02 3b
       0.015688887 0.05301202 0.02724822 0.0019885767
000280 14 d9 31 bc 6a 58 26 3c 7b 2f 98 bc 44 d5 15 3c
       -0.010854978 0.0101529155 -0.018577328 0.009145085
000290 ef f5 b2 bc df 99 0b bb b8 fc e8 bb 44 13 aa bc
       -0.021845786 -0.002130143 -0.0071102045 -0.02076114
0002a0 d8 95 6f 3b fb a5 78 3c 09 62 de bc 6e b5 54 3c
       0.003655782 0.015176292 -0.027146356 0.012982709
0002b0 30 a2 a8 3b 6d d3 2a bb 1b 72 8f 3c 90 a5 d5 ba
       0.0051462874 -0.002606596 0.017510464 -0.0016299952
0002c0 5d 3f 00 3c d3 c0 55 3b 66 61 c4 3c c1 15 a8 bc
       0.007827607 0.0032616153 0.023972224 -0.020518186
0002d0 17 eb 11 3d db 4b a5 bc bc 73 ea bb 4d ee 91 3c
       0.03562459 -0.020177772 -0.00715491 0.017813826
0002e0 d6 77 1b bb f7 f8 97 bc 8d 6f 0d bd 1b 95 d5 3b
       -0.002372255 -0.018551333 -0.03453021 0.006518019
0002f0 b4 84 f0 bc 62 ab 94 bc ed 22 13 3c 2a 83 5e 3c
       -0.029360153 -0.018148128 0.008980495 0.013581077
000300 f5 6c 93 3c b3 00 19 3c 32 d8 44 bb 8c 3a 5f 3c
       0.01799629 0.009338546 -0.003003609 0.0136247985
000310 af c2 2b 3d 48 eb 9e 3c d2 87 04 3d 9e 48 06 3c
       0.04193371 0.0193993 0.03235609 0.008196024
000320 5e ba 42 3c 31 00 1e 3b 10 cd 45 3c f2 84 05 bc
       0.011885254 0.0024109 0.0120728165 -0.008149372
000330 f2 e6 ed 3c ff aa 8b 3b 7e 7f 54 3c 48 21 87 bc
       0.029040787 0.0042623277 0.01296985 -0.016495362
000340 05 0f 38 3c 58 98 90 bc 95 15 bd 3c bd 61 e4 bc
       0.01123405 -0.017650768 0.02308158 -0.027878636
000350 f6 49 13 bd af d0 d3 ba 5d 3e 99 3b d9 20 5e 3c
       -0.035959207 -0.0016160215 0.0046766237 0.013557636
000360 05 f9 27 bd e9 63 aa 39 45 d0 44 3b 0d fc ae 3c
       -0.041008968 0.00032499366 0.0030031365 0.021360422
000370 33 f1 ca 3c 79 d3 be bc 74 9d 89 3c 13 66 ab 3c
       0.024773216 -0.023294197 0.016798712 0.020922696
000380 2b 76 c9 3c 8e 0e 88 bb e9 af ed 3c bb 6e cd 3b
       0.02459248 -0.0041521257 0.029014545 0.0062693036
000390 eb b8 95 3b 9c ee 11 3c f5 ec 1a bc 18 ea cd bc
       0.004569163 0.008906987 -0.009455909 -0.025136039
0003a0 6f 5d 2a 3c dd e0 a3 3b f4 d3 17 3a e7 23 ec 3b
       0.010398253 0.005001171 0.00057917763 0.0072064283
0003b0 26 12 9e bc 6d 7e 82 3c ab f4 10 3c 03 d1 f8 3c
       -0.019295763 0.015929425 0.008847396 0.030373102
0003c0 2e 35 86 bc 8c a0 e1 bc d5 60 da bc 3c a4 3a bd
       -0.01638278 -0.027542375 -0.026657501 -0.045566782
0003d0 14 33 ee 3c d9 a7 74 bc 99 24 99 bc 38 f4 34 bb
       0.02907709 -0.014932596 -0.018694209 -0.0027611386
0003e0 b8 03 8b 3b 1c 8a 48 bc d9 6f 3d 3d 78 6c fd 3c
       0.0042423867 -0.012239959 0.046249244 0.030935511
0003f0 0a d9 b3 bc 73 82 02 bc 12 a4 76 3b 58 da e8 3b
       -0.021954078 -0.007965672 0.0037634415 0.0071061067

transformer.h.1.ln_1.weight f4 [32]
000000 00 00 80 3f 00 00 80 3f 00 00 80 3f 00 00 80 3f
       1.0 1.0 1.0 1.0
000010 00 00 80 3f 00 00 80 3f 00 00 80 3f 00 00 80 3f
       1.0 1.0 1.0 1.0
000020 00 00 80 3f 00 00 80 3f 00 00 80 3f 00 00 80 3f
       1.0 1.0 1.0 1.0
000030 00 00 80 3f 00 00 80 3f 00 00 80 3f 00 00 80 3f
       1.0 1.0 1.0 1.0
000040 00 00 80 3f 00 00 80 3f 00 00 80 3f 00 00 80 3f
       1.0 1.0 1.0 1.0
000050 00 00 80 3f 00 00 80 3f 00 00 80 3f 00 00 80 3f
       1.0 1.0 1.0 1.0
000060 00 00 80 3f 00 00 80 3f 00 00 80 3f 00 00 80 3f
       1.0 1.0 1.0 1.0
000070 00 00 80 3f 00 00 80 3f 00 00 80 3f 00 00 80 3f
       1.0 1.0 1.0 1.0

transformer.h.1.ln_1.bias f4 [32]
000000 00 00 00 00 00 00 00 00 00 00 00 00 00 00 00 00
       0.0 0.0 0.0 0.0
000010 00 00 00 00 00 00 00 00 00 00 00 00 00 00 00 00
       0.0 0.0 0.0 0.0
000020 00 00 00 00 00 00 00 00 00 00 00 00 00 00 00 00
       0.0 0.0 0.0 0.0
000030 00 00 00 00 00 00 00 00 00 00 00 00 00 00 00 00
       0.0 0.0 0.0 0.0
000040 00 00 00 00 00 00 00 00 00 00 00 00 00 00 00 00
       0.0 0.0 0.0 0.0
000050 00 00 00 00 00 00 00 00 00 00 00 00 00 00 00 00
       0.0 0.0 0.0 0.0
000060 00 00 00 00 00 00 00 00 00 00 00 00 00 00 00 00
       0.0 0.0 0.0 0.0
000070 00 00 00 00 00 00 00 00 00 00 00 00 00 00 00 00
       0.0 0.0 0.0 0.0
